classifier.onnx (onnx, 195437 bytes, 12 tensors)

conv1.weight f4 [6, 1, 5, 5]
0.060071196 0.14279267 -0.15772896 -0.1967521 -0.12189834 0.24485989 -0.10123345 -0.07918376
-0.0065828552 0.083060905 -0.19731331 -0.30596495 0.043242667 0.33341703 0.024067326 -0.34594455
-0.30575237 0.16905531 0.1620793 0.30705115 -0.19651799 -0.18229765 -0.18610832 0.2815572
0.0037741906 -0.31871328 -0.27073735 0.011122223 0.12309881 0.19689038 0.06648691 0.18938868
0.25545737 0.041711416 -0.18055308 0.08649664 0.071987875 0.08751226 -0.2375655 -0.34240612
0.358316 0.38295078 0.058674388 -0.1692971 -0.27622455 0.005593342 0.32120967 -0.07453171
-0.22128987 -0.27692986 0.07015276 0.12239996 0.19191308 0.046922695 0.13728714 -0.048252493
-0.17633381 0.067934275 0.087697364 -0.09017009 -0.14456865 -0.00023213764 0.17598645 0.039692763
-0.113855675 0.00038781567 0.1472001 -0.20535791 -0.2539183 -0.06486987 0.04599409 0.035230774
-0.12527172 -0.11439322 0.017264578 -0.2682382 -0.32433963 -0.12157568 -0.26516092 -0.06924629
-0.21523894 -0.32349777 -0.0488388 -0.066647686 -0.02470397 0.10584845 -0.117652945 -0.24609444
0.14303751 -0.12910841 0.16568051 0.0082474435 0.29549116 0.11739757 -0.04301706 0.44835556
0.4578402 0.26729742 -0.017495176 0.1271337 -0.15018086 -0.027230904 -0.23694758 0.12717581
0.3146171 -0.19936112 -0.24909313 -0.1655124 0.22158115 0.07990618 -0.14857616 0.038332123
0.052885953 0.19545245 -0.080135934 0.21276733 0.13694826 0.14381465 -0.075037226 -0.13932818
0.09366472 0.003133481 0.17032231 -0.13064602 -0.14557563 -0.3452569 -0.3004458 -0.20843807
0.07624794 -0.13318683 0.058692306 -0.0065613207 0.08593096 0.28411752 0.07234948 0.16767819
0.28405604 0.26937875 0.25754488 0.01847538 0.30511028 0.23971 -0.10155812 0.09587803
-0.19100174 0.29768705 -0.09473896 0.02647911 -0.24411602 -0.2917396
00000000: 370d 763d 3e38 123e b383 21be 6279 49be
00000010: d6a5 f9bd 8dbc 7a3e 7c53 cfbd 182b a2bd
00000020: feb4 d7bb d61b aa3d 800c 4abe 70a7 9cbe
00000030: 391f 313d a3b5 aa3e d728 c53c a51f b1be
00000040: 938b 9cbe d61c 2d3e 1ef8 253e cf35 9d3e
00000050: 033c 49be 3cac 3abe 2e93 3ebe 4428 903e
00000060: 6958 773b 632e a3be 169e 8abe fc39 363c
00000070: 3b1b fc3d a29d 493e 4a2a 883d 1bef 413e
00000080: 4fcb 823e 97d9 2a3d e8e2 38be 2725 b13d
00000090: 616e 933d a139 b33d 5f44 73be db4f afbe
000000a0: 3275 b73e 2012 c43e 8e54 703d 385c 2dbe
000000b0: 4e6d 8dbe 5a48 b73b 9875 a43e 15a4 98bd
000000c0: d099 62be c0c9 8dbe 40ac 8f3d d5ac fa3d
000000d0: dd84 443e 0332 403d 0095 0c3e 68a4 45bd
000000e0: da90 34be 2021 8b3d ad9a b33d 19ab b8bd
000000f0: ce09 14be f969 73b9 cb35 343e e194 223d
00000100: 2a2d e9bd bd53 cb39 9fbb 163e 5849 52be
00000110: 9401 82be 7fda 84bd 4d64 3c3d 254e 103d
00000120: 3b47 00be fe46 eabd 726e 8d3c 8456 89be
00000130: d80f a6be acfc f8bd 2cc3 87be 00d1 8dbd
00000140: 9967 5cbe 80a1 a5be 320b 48bd 957e 88bd
00000150: fb5f cabc 12c7 d83d 07f4 f0bd 2e00 7cbe
00000160: 6d78 123e ff34 04be 27a8 293e 4920 073c
00000170: 9e4a 973e 236e f03d a832 30bd dc8e e53e
00000180: 086a ea3e 35db 883e 0b52 8fbc 562f 023e
00000190: 03c9 19be 5813 dfbc 63a2 72be 603a 023e
000001a0: 7e15 a13e 5225 4cbe 4512 7fbe 157c 29be
000001b0: 2be6 623e daa5 a33d 5924 18be 2502 1d3d
000001c0: f19e 583d b024 483e 4f1e a4bd aedf 593e
000001d0: 2a3c 0c3e 2644 133e 1ead 99bd 0cac 0ebe
000001e0: 4ad3 bf3d 165b 4d3b f968 2e3e 12c8 05be
000001f0: c711 15be 83c5 b0be 08d4 99be ca70 55be
00000200: e127 9c3d 2162 08be 5867 703d 5900 d7bb
00000210: 92fc af3d da77 913e f72b 943d d5b3 2b3e
00000220: cb6f 913e 03ec 893e ecdc 833e ae59 973c
00000230: 6a37 9c3e 8a76 753e b4fd cfbd b35b c43d
00000240: f695 43be 706a 983e 8006 c2bd b8ea d83c
00000250: 8df9 79be e55e 95be

conv1.bias f4 [6]
0.11805858 -0.041560765 0.12881368 0.048376128 0.15254529 0.2892625
00000000: b2c8 f13d 9f3b 2abd bce7 033e 0c26 463d
00000010: d534 1c3e 371a 943e

conv2.weight f4 [16, 6, 5, 5]
-0.15172145 -0.0022777384 0.062293474 0.1330219 0.03423448 -0.06492482 -0.055967968 -0.05432698
0.012047763 0.064328134 -0.0551582 -0.041025933 0.14347935 0.012991387 -0.09914882 -0.17979077
0.06703675 0.14637096 0.13686116 0.0187172 -0.043548275 -0.025242338 0.02596319 -0.058429003
-0.041081626 0.091533 0.07409918 -0.10307912 -0.06541206 -0.061258394 0.1829046 0.11311856
0.09763223 -0.12203049 -0.21164271 0.26089177 -0.09061669 -0.22362757 -0.10904807 -0.05749094
0.15481453 -0.089182936 -0.15899436 -1.8945442e-05 0.10225477 0.03784604 -0.23371698 0.14551449
0.09012588 -0.13227427 -0.056126945 -0.009945532 0.052192923 -0.013793721 -0.08839985 0.025290594
0.007987011 0.056070864 0.1608537 0.020696007 0.049763512 -0.01468332 -0.027451053 -0.08713707
-0.029485712 -0.022464903 0.0413189 0.043537926 0.092973135 0.08032739 0.0531191 0.038009882
0.07788396 0.09164666 0.17100158 -0.10412516 -0.045176078 -0.064808935 -0.15700412 0.022873372
-0.03753862 -0.08328203 0.03910001 -0.12757905 -0.06960352 0.009323548 -0.118269674 -0.04899406
0.1139685 0.20191856 -0.094352916 -0.19998762 -0.050518744 0.11078933 0.118659765 -0.18001041
-0.17768785 0.040777765 -0.035541475 -0.095712714 -0.20530827 0.095614575 0.014473212 -0.0858432
-0.07355655 -0.12734772 0.06405817 0.058912147 -0.1177516 -0.10423774 -0.0058591412 -0.059722923
-0.07654034 0.12282833 0.09954902 -0.07251193 -0.016470253 0.048171956 0.17827588 0.10027957
-0.22309214 -0.0407582 0.02252431 0.08110984 -0.07262456 0.08665691 0.026667254 0.08341568
-0.04282031 0.057932604 -0.047331966 0.031047048 -0.057944853 -0.11648305 -0.15356766 0.052276436
-0.09729489 -0.24942675 -0.033349272 0.027612504 -0.0441858 -0.15735234 -0.030108673 0.18346839
0.12625048 -0.013439922 -0.21287687 0.0010595154 0.012147777 -0.14108667 0.13517894 0.07974933
-0.10361941 0.0018169086 0.079406664 0.053728558 0.08022285 -0.11280278 0.07848906 0.04847079
0.03621487 -0.012924924 -0.10542346 -0.08042816 0.058703434 0.05379357 0.009468931 -0.27506092
-0.12204601 0.026290912 0.046599235 -0.05425842 -0.13821383 -0.09364452 -0.06502278 -0.16705883
-0.12844282 0.000113943366 -0.11269928 -0.05894601 -0.19409533 -0.0057228073 0.04080825 -0.010394232
-0.033605408 -0.03789133 0.05426802 -0.01416421 -0.0798467 -0.029456712 -0.010650729 -0.045585368
0.1141111 -0.14196818 0.04766972 0.036222093 -0.1224771 -0.028492883 -0.055704735 0.17167412
-0.0037046308 -0.055398628 -0.08604066 0.05091248 -0.09712037 -0.099338956 -0.019573167 -0.10875861
-0.084335074 -0.011643439 -0.1996149 -0.09685831 -0.13520175 -0.10382238 0.03248904 -0.14528121
-0.130701 -0.13955995 -0.07854915 -0.028328773 -0.026530161 0.05758257 -0.03573091 -0.054916326
-0.03700275 -0.0653164 0.1269518 0.13204862 0.09477958 0.12253316 -0.09777424 -0.061775334
-0.026292738 0.11641637 0.14211285 -0.12454272 -0.104582615 0.019394092 -0.05319332 -0.010389361
-0.23093426 -0.24050395 -0.24244715 0.020307593 -0.055831823 -0.22672948 -0.19671908 -0.19059703
0.09364427 0.1670453 -0.24445626 -0.027481329 0.08624056 0.10557928 0.007744233 -0.118021615
00000000: de5c 1bbe 1c46 15bb 7127 7f3d e536 083e
00000010: 7439 0c3d 4ef7 84bd ab3e 65bd f885 5ebd
00000020: fb63 453c 78be 833d 91ed 61bd cf0a 28bd
00000030: 40ec 123e d4d9 543c 890e cbbd 121b 38be
00000040: 904a 893d 45e2 153e 5525 0c3e d054 993c
00000050: ad5f 32bd 05c9 cebc c1b0 d43c 4053 6fbd
00000060: 3545 28bd a775 bb3d 50c1 973d 251b d3bd
00000070: c2f6 85bd 15ea 7abd 584b 3b3e b4aa e73d
00000080: 68f3 c73d 1feb f9bd deb8 58be 9b93 853e
00000090: 3e95 b9bd a0fe 64be 9854 dfbd 9f7b 6bbd
000000a0: b387 1e3e 8ba5 b6bd 6bcf 22be 07ed 9eb7
000000b0: f36a d13d 7304 1b3d 8153 6fbe c001 153e
000000c0: eb93 b83d e872 07be 5ee5 65bd 96f2 22bc
000000d0: 3fc8 553d 0fff 61bc fb0a b5bd 382e cf3c
000000e0: f4db 023c 90aa 653d d5b6 243e ac8a a93c
000000f0: d3d4 4b3d 4f92 70bc 08e1 e0bc ec74 b2bd
00000100: 058c f1bc 5108 b8bc 023e 293d d354 323d
00000110: b368 be3d b082 a43d 6a93 593d 40b0 1b3d
00000120: a081 9f3d 3eb1 bb3d 0a1b 2f3e 923f d5bd
00000130: 8d0a 39bd 8cba 84bd b0c5 20be f060 bb3c
00000140: 19c2 19bd c58f aabd 5527 203d 15a4 02be
00000150: 4a8c 8ebd cbc1 183c 5f37 f2bd ffad 48bd
00000160: 5168 e93d bdc3 4e3e 1a3c c1bd 8ec9 4cbe
00000170: beec 4ebd 84e5 e23d e403 f33d a654 38be
00000180: cef3 35be 9606 273d f093 11bd 0705 c4bd
00000190: 553c 52be 93d1 c33d 0d21 6d3c 8fce afbd
000001a0: d1a4 96bd 7167 02be ee30 833d dd4d 713d
000001b0: c027 f1bd 997a d5bd 0afe bfbb 06a0 74bd
000001c0: 2fc1 9cbd 6b8d fb3d 5be0 cb3d 2281 94bd
000001d0: a0ec 86bc f54f 453d f48d 363e 605f cd3d
000001e0: 4472 64be 12f2 26bd e784 b83c ea1c a63d
000001f0: 2fbc 94bd 2e79 b13d 4975 da3c d7d5 aa3d
00000200: 5964 2fbd bd4a 6d3d 2adf 41bd 6156 fe3c
00000210: 9557 6dbd aa8e eebd d740 1dbe d11f 563d
00000220: 8b42 c7bd ba69 7fbe 3f99 08bd 9e33 e23c
00000230: 2bfc 34bd f920 21be 77a6 f6bc 23df 3b3e
00000240: ce47 013e 1e33 5cbc 65fc 59be 70df 8a3a
00000250: 7807 473c 0679 10be 596c 0a3e 9e53 a33d
00000260: 6a36 d4bd 5625 ee3a f69f a23d 7a12 5c3d
00000270: e14b a43d 2505 e7bd dfbe a03d 4f89 463d
00000280: 0b56 143d 0fc3 53bc 41e8 d7bd 85b7 a4bd
00000290: 0373 703d a556 5c3d 9323 1b3c c9d4 8cbe
000002a0: 42f3 f9bd 0a60 d73c d7de 3e3d 143e 5ebd
000002b0: ed87 0dbe b3c8 bfbd aa2a 85bd 7811 2bbe
000002c0: 8486 03be e1f4 ee38 e1ce e6bd 5f71 71bd
000002d0: edc0 46be 6386 bbbb 8d26 273d 924c 2abc
000002e0: d3a5 09bd f033 1bbd 2548 5e3d 0111 68bc
000002f0: ab86 a3bd 344f f1bc 6580 2ebc b9b7 3abd
00000300: 15b3 e93d 1b60 11be 5341 433d 9e5d 143d
00000310: 46d5 fabd e869 e9bc a62a 64bd 57cb 2f3e
00000320: 64c9 72bb ace9 62bd 1636 b0bd 9b89 503d
00000330: 0be7 c6bd 3972 cbbd e857 a0bc d6bc debd
00000340: deb7 acbd 1fc4 3ebc d967 4cbe a65d c6bd
00000350: 5472 0abe d4a0 d4bd 3a13 053d 99c4 14be
00000360: 7cd6 05be cee8 0ebe 60de a0bd be11 e8bc
00000370: c855 d9bc b3db 6b3d 935a 12bd f1ef 60bd
00000380: 3290 17bd 9bc4 85bd a7ff 013e c137 073e
00000390: cc1b c23d aaf2 fa3d dc3d c8bd 2208 7dbd
000003a0: de63 d7bc b56b ee3d 0886 113e 4110 ffbd
000003b0: 692f d6bd 5ce0 9e3c 3de1 59bd 2338 2abc
000003c0: 087a 6cbe ab46 76be 1144 78be 1c5c a63c
000003d0: e9af 64bd c62b 68be ba70 49be de2b 43be
000003e0: 91c8 bf3d ec0d 2b3e be52 7abe 8620 e1bc
000003f0: e49e b03d f339 d83d 56c3 fd3b 51b5 f1bd

conv2.bias f4 [16]
-0.057962235 0.02232683 -0.082376085 0.059955634 -0.032031294 0.067756064 0.024455966 -0.08807439
0.06139594 -0.17570363 0.113044836 -0.07631861 0.007152988 0.0055624996 -0.043117132 -0.08148056
00000000: cf69 6dbd c2e6 b63c cbb4 a8bd 0a94 753d
00000010: 3f33 03bd b1c3 8a3d e157 c83c 5960 b4bd
00000020: 4f7a 7b3d a7eb 33be 0d84 e73d ee4c 9cbd
00000030: 9d63 ea3b a145 b63b 979b 30bd 48df a6bd

fc1.weight f4 [120, 256]
-0.019500216 0.12991956 0.23330684 0.05566284 -0.033331554 0.009561015 0.05794384 -0.007823672
-0.06741972 0.08858767 0.053067062 -0.0051224562 0.055438787 -0.043547627 -0.16826849 -0.08270526
-0.06354082 0.0226934 -0.08561177 -0.00054860185 -0.055763263 -0.05509251 0.01297143 0.017037464
-0.011916615 0.019452766 -0.048268475 0.043273814 -0.015722675 0.097308 -0.02353911 -0.031156098
-0.06614402 -0.03172546 -0.035537075 -0.06662696 0.08702612 0.054779474 0.025379134 0.07354761
-0.07611212 0.013362045 0.07252906 0.040540352 0.023889853 -0.07023002 -0.057840075 -0.005537947
0.003699842 0.032505456 -0.01682486 -0.09090308 0.08321703 -0.035666216 -0.0233153 -0.070613936
-0.0021139504 0.048401896 0.00030692457 -0.09411957 0.17132498 0.10259559 -0.08763481 -0.020065345
-0.018062098 0.01623313 -0.022113774 -0.10714217 0.018684562 0.005765714 0.030044101 -0.044673473
0.043590233 -0.024577629 -0.06429283 -0.038526006 0.02866428 -0.10563524 -0.027931143 0.029690513
0.063831866 0.0712009 0.111553386 0.08156707 0.04289044 0.05429641 0.024124218 0.06474101
0.08744421 0.058419358 0.07942188 0.02692806 -0.020027366 0.0068613277 0.043691 -0.0015215283
-0.023978489 0.00036827312 0.11009772 0.1079559 0.09136793 0.0611654 0.059329614 0.047688928
0.011310799 0.095099986 0.12357932 0.016328689 -0.030294908 -0.016282666 -0.024386264 -0.012433395
-0.06503266 -0.02303626 0.030371234 -0.028188284 -0.08193416 0.010020601 0.028677592 -0.1674618
0.10975361 0.023579184 -0.038701296 -0.14054848 -0.03837617 0.078642055 0.051868115 -0.1332518
0.08715589 0.036141027 0.06977516 0.014515828 -0.00092401507 0.018258294 0.043924667 0.057707667
0.051583104 0.057184026 -0.008732686 -0.02937748 0.08853538 0.11629847 0.0046178824 0.048805997
-0.086011715 -0.01842909 0.06315378 0.056170363 -0.10460761 0.0067752916 0.08174731 -0.0715052
-0.001066828 0.0338032 -0.060659178 0.055635188 -0.005332347 -0.0108741075 -0.034220472 -0.031608578
0.1304486 0.100990705 0.07120421 0.028066015 0.08262939 0.13388245 0.02785084 0.03780142
0.07707296 0.19990519 0.082198285 0.06000433 0.014472545 0.081675544 0.11453682 0.11567051
-0.13911039 -0.11032688 -0.02438056 -0.09444147 -0.049503665 0.024822665 -0.023485286 -0.023642704
-0.08219514 -0.032244124 -0.146016 -0.087728575 -0.08563415 -0.03410187 -0.08406796 -0.19468096
-0.015312737 0.030075785 0.027023409 -0.031633377 -0.012024303 -0.014276363 -0.0072640637 0.06145414
-0.05012556 -0.047747463 -0.07728459 -0.11792516 0.042770196 -0.02599796 -0.0024418407 -0.05479575
0.011649097 0.033034153 0.10296864 0.07793784 -0.051413026 -0.019391151 -0.021817563 0.08062005
-0.024262719 -0.0025587874 0.019295055 0.17259179 0.023905968 0.045904975 0.12131074 0.18221794
0.03771221 -0.10255522 -0.0765031 -0.08315192 -0.03718888 -0.031083476 -0.028948402 -0.030346325
-0.03640345 -0.018164316 -0.11365295 -0.18916567 -0.086763196 -0.027460683 -0.04110208 -0.1154251
-0.0032096799 0.027833484 0.08155143 0.011833138 0.09403454 0.008633423 -0.043577466 -0.047686405
-0.046556138 -0.016310368 0.061656058 -0.056396976 0.045133777 0.0496512 0.044215757 -0.07885106
00000000: ebbe 9fbc a209 053e fde7 6e3e b8fe 633d
00000010: ab86 08bd cea5 1c3c 8556 6d3d dc2e 00bc
00000020: 5a13 8abd 746d b53d d95c 593d 47da a7bb
00000030: c813 633d ff5e 32bd 934e 2cbe 6061 a9bd
00000040: b021 82bd 82e7 b93c 3955 afbd 0cd0 0fba
00000050: 0568 64bd afa8 61bd 1f86 543c 2792 8b3c
00000060: e83d 43bc 685b 9f3c 2ab5 45bd e23f 313d
00000070: d7cc 80bc 6b49 c73d 17d5 c0bc 133b ffbc
00000080: 8476 87bd 8ef2 01bd 538f 11bd b773 88bd
00000090: c03a b23d 7160 603d e7e7 cf3c 21a0 963d
000000a0: ace0 9bbd 7bec 5a3c 1e8a 943d a40d 263d
000000b0: a7b4 c33c c2d4 8fbd b7e9 6cbd ab77 b5bb
000000c0: 0c79 723b 7124 053d 4ad4 89bc 652b babd
000000d0: b16d aa3d bd16 12bd baff bebc 0a9e 90bd
000000e0: 348a 0abb 1141 463d b8ea a039 c3c1 c0bd
000000f0: d16f 2f3e a31d d23d e179 b3bd 1460 a4bc
00000100: f7f6 93bc 57fb 843c f227 b5bc 5b6d dbbd
00000110: 5e10 993c 51ee bc3b 0c1f f63c 88fb 36bd
00000120: ac8b 323d 0657 c9bc f6ab 83bd 72cd 1dbd
00000130: 5ad1 ea3c 4a57 d8bd dacf e4bc 8539 f33c
00000140: 48ba 823d c7d1 913d 1a76 e43d a30c a73d
00000150: e3ad 2f3d ea65 5e3d 27a0 c53c ef96 843d
00000160: f315 b33d 2349 6f3d f0a7 a23d 3c98 dc3c
00000170: 6e10 a4bc fdd4 e03b 56f5 323d 056e c7ba
00000180: 896e c4bc c814 c139 ea7a e13d fc17 dd3d
00000190: 1c1f bb3d 9288 7a3d 9c03 733d 7755 433d
000001a0: ee50 393c c8c3 c23d 2817 fd3d bec3 853c
000001b0: 072d f8bc 3a63 85bc b4c5 c7bc 70b5 4bbc
000001c0: d82f 85bd 8ab6 bcbc 18cd f83c 1eeb e6bc
000001d0: 19cd a7bd 722d 243c 45ed ea3c 1b7b 2bbe
000001e0: 80c6 e03d 2229 c13c 4085 1ebd f1eb 0fbe
000001f0: 5530 1dbd 160f a13d a973 543d 2973 08be
00000200: ca7e b23d 9d08 143d 47e6 8e3d ccd3 6d3c
00000210: 9a39 72ba 6b92 953c 5aea 333d e05e 6c3d
00000220: ce48 533d cc39 6a3d 8a13 0fbc 0aa9 f0bc
00000230: 0a52 b53d e42d ee3d 9b51 973b cce8 473d
00000240: e926 b0bd 9af8 96bc c556 813d e512 663d
00000250: 843c d6bd 4403 de3b 226b a73d 5171 92bd
00000260: cfd4 8bba 3975 0a3d c275 78bd b9e1 633d
00000270: f8ba aebb 5029 32bc c42a 0cbd ff77 01bd
00000280: 5194 053e 37d4 ce3d 83d3 913d b3ea e53c
00000290: 9939 a93d 7b18 093e 7227 e43c a9d5 1a3d
000002a0: 6ed8 9d3d f2b3 4c3e 9357 a83d 1ac7 753d
000002b0: 411e 6d3c 8245 a73d 4892 ea3d a9e4 ec3d
000002c0: f472 0ebe 0ff3 e1bd bdb9 c7bc 886a c1bd
000002d0: 5bc4 4abd e758 cb3c 3764 c0bc 58ae c1bc
000002e0: ed55 a8bd 6a12 04bd 3885 15be 0aab b3bd
000002f0: f560 afbd 67ae 0bbd d32b acbd 725a 47be
00000300: 46e2 7abc 7e61 f63c 3260 dd3c 0092 01bd
00000310: 9501 45bc 68e7 69bc 6207 eebb 56b7 7b3d
00000320: 7650 4dbd d892 43bd 6247 9ebd bf82 f1bd
00000330: cd2f 2f3d acf9 d4bc 4a07 20bb 8271 60bd
00000340: dbdb 3e3c d24e 073d 39e1 d23d e09d 9f3d
00000350: 7796 52bd 31da 9ebc bfba b2bc 201c a53d
00000360: 9cc2 c6bc 54b1 27bb aa10 9e3c e7bb 303e
00000370: 73d6 c33c db06 3c3d c471 f83d 5797 3a3e
00000380: 1e78 1a3d 7908 d2bd a8ad 9cbd 8e4b aabd
00000390: 5e53 18bd c6a2 febc 3325 edbc db98 f8bc
000003a0: c91b 15bd 55cd 94bc e1c2 e8bd a5b4 41be
000003b0: e7b0 b1bd 3af5 e0bc a85a 28bd ff63 ecbd
000003c0: 7e59 52bb 0c03 e43c 7004 a73d c7df 413c
000003d0: 2e95 c03d 3373 0d3c 497e 32bd d252 43bd
000003e0: a6b1 3ebd 529d 85bc 108b 7c3d 8400 67bd
000003f0: 32de 383d 0f5f 4b3d 951b 353d aa7c a1bd

fc1.bias f4 [120]
0.21016364 -0.042475257 0.08844923 0.24684592 0.12975663 -0.09556471 -0.09865313 0.19719073
-0.00050528004 -0.045158762 -0.0662402 -0.2001532 -0.06446826 0.1639056 -0.063833356 -0.014418374
0.009239133 0.23125157 -0.037504483 -0.048998587 -0.13654374 0.030497491 -0.09427049 -0.10945843
-0.027269991 0.18468331 0.012738261 -0.09594936 -0.013419895 0.13061784 0.03476422 -0.04927846
-0.038030084 -0.035892732 -0.065015815 -0.10198873 -0.02209392 -0.06291482 -0.11095131 0.21222359
-0.05786398 0.015684998 -0.09799975 0.0063813673 0.2673383 0.07002487 -0.07552316 -0.056709822
-0.03907475 -0.079578504 -0.09641813 -0.017853588 -0.06434088 -0.048756152 -0.0026836498 -0.07498069
-0.013569357 0.09375388 -0.075586654 0.045065172 -0.013208091 -0.019544415 -0.0048238225 0.03438992
-0.01221762 0.03966998 -0.06293704 -0.018156378 0.18757857 -0.07047746 -0.098942704 -0.065726854
-0.046109352 0.055026136 0.21043195 0.03923556 -0.14739737 -0.008019752 -0.10345752 0.16135162
0.1216384 0.07761632 0.14453228 -0.1090029 0.082298614 0.022506109 -0.05274571 -0.03974842
0.13289174 0.17253058 -0.02668918 0.11934081 0.030668596 -0.018182319 0.025023947 -0.00549639
0.10771465 0.008494696 -0.1576809 -0.028831538 -0.10462353 -0.025594195 0.03713133 -0.036067966
-0.05023243 -0.034819253 0.047496654 0.062044717 0.06967262 -0.123894535 0.002200843 0.025247911
0.02050333 -0.060647566 -0.010696029 0.123416394 0.08095903 -0.12798354 -0.08950111 -0.06394895
00000000: 2335 573e 89fa 2dbd df24 b53d 2dc5 7c3e
00000010: ecde 043e 6eb7 c3bd a70a cabd 5eec 493e
00000020: c574 04ba 65f8 38bd f1a8 87bd f6f4 4cbe
00000030: ef07 84bd dfd6 273e 10bb 82bd 0b3b 6cbc
00000040: bc5f 173c 36cd 6c3e 4d9e 19bd beb2 48bd
00000050: 1fd2 0bbe e0d5 f93c e310 c1bd be2b e0bd
00000060: 5165 dfbc 9f1d 3d3e 24b4 503c 1981 c4bd
00000070: 1fdf 5bbc afc0 053e ed64 0e3d 36d8 49bd
00000080: 6fc5 1bbd 4204 13bd 0327 85bd 78df d0bd
00000090: 4ffe b4bc 7cd9 80bd 713a e3bd 2451 593e
000000a0: c802 6dbd d37d 803c 18b4 c8bd ca1a d13b
000000b0: 91e0 883e 3369 8f3d e3ab 9abd 8f48 68bd
000000c0: d80c 20bd 0efa a2bd de76 c5bd b041 92bc
000000d0: 27c5 83bd 88b4 47bd 2ce0 2fbb 7a8f 99bd
000000e0: 0252 5ebc 0902 c03d 2dcd 9abd 4296 383d
000000f0: c066 58bc 9c1b a0bc 2811 9ebb 72dc 0c3d
00000100: 6a2c 48bc fd7c 223d 23e5 80bd afbc 94bc
00000110: 9914 403e 7d56 90bd 79a2 cabd cd9b 86bd
00000120: 29dd 3cbd 1663 613d 797b 573e 77b5 203d
00000130: 56ef 16be 4765 03bc 89e1 d3bd 5c39 253e
00000140: 8e1d f93d 4ef5 9e3d 4500 143e ea3c dfbd
00000150: 2d8c a83d bb5e b83c e30b 58bd 3dcf 22bd
00000160: c614 083e dbab 303e 44a3 dabc f468 f43d
00000170: b53c fb3c 16f3 94bc 05ff cc3c 101b b4bb
00000180: 8099 dc3d 562d 0b3c 1a77 21be 1e30 ecbc
00000190: dc44 d6bd ebaa d1bc 0617 183d 01bc 13bd
000001a0: 85c0 4dbd a29e 0ebd da8b 423d 9a22 7e3d
000001b0: 85b0 8e3d 6bbc fdbd 053c 103b b5d4 ce3c
000001c0: 99f6 a73c 9569 78bd 663e 2fbc bcc1 fc3d
000001d0: d9cd a53d 1e0e 03be 5c4c b7bd abf7 82bd

fc2.weight f4 [84, 120]
-0.13480075 -0.028981343 -0.084846646 -0.19406755 -0.17639753 0.048685968 -0.08674232 -0.10747095
0.22253698 0.030281965 0.2484466 0.13166644 -0.1694326 0.012713841 -0.08818718 0.17123629
0.09525589 0.06660436 0.03736981 0.03886706 0.0672389 -0.07127827 0.16357648 -0.26620245
-0.1425393 -0.15132722 0.15205474 0.11238599 0.012486567 0.045611564 -0.17840445 0.16543803
-0.07478825 -0.009492897 0.032522608 0.051105145 -0.11690326 -0.029236583 -0.024233224 -0.0049585337
-0.11712211 -0.12379584 -0.031686917 0.07490317 0.012362507 -0.05658648 -0.20110716 0.04021548
-0.01745885 0.030646244 0.027233254 -0.034553573 0.16024242 0.068893604 0.06515631 -0.12882596
0.07047601 0.09249721 -0.014439796 0.14172852 -0.007898198 -0.19736567 -0.040171746 -0.008350967
-0.0010612098 -0.027431948 -0.028479638 0.0686374 -0.003857815 -0.16682202 -0.00547299 -0.012325248
0.06679747 0.06300879 0.10062611 0.08963264 -0.046156 0.07950974 0.041777764 0.10218351
0.053527366 0.014633717 -0.052474715 0.27833062 -6.949525e-05 -0.17562178 -0.04871065 0.1197137
0.10196583 -0.02024318 -0.13324274 -0.014439619 0.079284675 0.06848123 0.103638664 0.07191784
-0.11046695 -0.18222487 0.033162996 0.1927371 0.18728882 0.03125977 -0.052881505 0.090054214
-0.03444891 0.17851317 -0.14842047 -0.073691055 -0.030150762 -0.05563462 0.054680303 0.037970733
0.0028658726 -0.054470364 0.1557294 0.006443004 0.09435542 -0.05904117 0.6621008 -0.016752604
0.063302025 -0.056920208 0.08179075 0.16258015 0.04615814 0.11231375 -0.044935536 0.13038637
0.1316661 -0.12679201 0.07964434 -0.10284227 0.03547292 0.071253225 0.111476064 -0.06894062
0.02920695 0.027844207 -0.0052201482 -0.049870484 0.036123708 0.15300898 0.06961701 0.13216318
-0.027445676 0.09632757 0.037306808 -0.014144459 -0.016162707 -0.010784326 0.12798275 -0.0069851438
0.010878785 0.012305175 0.028698895 -0.017276686 -0.06637447 -0.006315949 -0.04107801 0.005980589
0.07140075 0.07698351 -0.0051224134 0.040724233 0.08962795 0.0446768 -0.0039542015 -0.110817105
0.0073648463 0.038126096 -0.008001573 -0.045450874 0.014102349 -0.11599843 -0.03149911 -0.032890376
0.11838307 0.12647136 0.056616165 0.14757533 0.08479695 0.016713647 0.03681409 0.1849443
0.15120962 0.16938768 -0.05506277 -0.088367924 -0.015975894 -0.029756645 -0.02240663 0.075049035
-0.04033176 0.066897996 -0.014053548 -0.15806568 -0.06843446 0.03690188 0.09900642 -0.0096425265
-0.014820217 0.13378109 0.10621218 -0.07830644 0.058211222 -0.073804975 -0.039078936 -0.062020883
-0.039075207 0.056258973 -0.026373072 0.06762293 0.05756327 -0.03341597 -0.17025359 -0.01200004
0.112054355 0.1454638 0.0079564005 0.06404164 -0.17014587 0.088531524 0.17683911 0.007889727
0.1047108 0.018151816 -0.049685813 0.17197783 -0.018169897 -0.06382114 0.09546435 0.18512703
-0.05682441 -0.104790024 0.17655422 0.13763739 0.048210472 -0.096163586 -0.07097017 -0.04820329
-0.09714086 0.04909659 0.016303742 -0.11947175 -0.121307135 0.0105924895 -0.049672186 0.07054982
-0.11697632 0.08159879 0.047611218 0.03179238 -0.041485123 0.059024084 -0.0039590765 0.20183402
00000000: 3509 0abe 486a edbc 14c4 adbd a5b9 46be
00000010: 8ea1 34be f06a 473d f5a5 b1bd bb19 dcbd
00000020: bce0 633e e211 f83c c968 7e3e 91d3 063e
00000030: bd7f 2dbe b74d 503c 7b9b b4bd 9158 2f3e
00000040: 8515 c33d de67 883d 1611 193d 1133 1f3d
00000050: 8cb4 893d 57fa 91bd 9880 273e b04b 88be
00000060: d2f5 11be 86f5 1abe 3db4 1b3e a02a e63d
00000070: 7594 4c3c 31d3 3a3d a8af 36be 9668 293e
00000080: 952a 99bd 1988 1bbc 6d36 053d a153 513d
00000090: fa6a efbd 8f81 efbc c184 c6bc 327b a2bb
000000a0: b8dd efbd ac88 fdbd 24ca 01bd d566 993d
000000b0: 1d8c 4a3c 3ac7 67bd 09ef 4dbe fdb8 243d
000000c0: dd05 8fbc d50d fb3c 4618 df3c 0c88 0dbd
000000d0: 9716 243e 1718 8d3d ac70 853d f4ea 03be
000000e0: ba55 903d 2d6f bd3d e594 6cbc 4821 113e
000000f0: 7267 01bc 3a1a 4abe 218b 24bd 7fd2 08bc
00000100: 4b18 8bba f7b8 e0bc 214e e9bc c491 8c3d
00000110: 65d3 7cbb 64d3 2abe c556 b3bb d6ef 49bc
00000120: 1dcd 883d c10a 813d 1015 ce3d 5191 b73d
00000130: 130e 3dbd 01d6 a23d 291f 2b3d 9745 d13d
00000140: 833f 5b3d 42c2 6f3c baef 56bd 5a81 8e3e
00000150: fabd 91b8 32d6 33be d284 47bd 752c f53d
00000160: 76d3 d03d 07d5 a5bc c970 08be 2794 6cbc
00000170: 0160 a23d e33f 8c3d 8240 d43d a949 933d
00000180: 7f3c e2bd 2899 3abe ecd5 073d e05c 453e
00000190: a4c8 3f3e 3f0a 003d 479a 58bd 586e b83d
000001a0: 4d1a 0dbd 28cc 363e 89fb 17be 56eb 96bd
000001b0: bbfe f6bc 21e1 63bd 74f8 5f3d 3387 1b3d
000001c0: 5dd1 3b3b 511c 5fbd 8777 1f3e d61f d33b
000001d0: 6a3d c13d 27d5 71bd 707f 293f c23c 89bc
000001e0: 7ea4 813d 2a25 69bd e981 a73d 697b 263e
000001f0: 5110 3d3d c004 e63d 530e 38bd 0184 053e
00000200: 7ad3 063e c4d5 01be 921c a33d f89e d2bd
00000210: 0d4c 113d 36ed 913d 904d e43d bd30 8dbd
00000220: 6a43 ef3c 8919 e43c c70d abbb fe44 4cbd
00000230: 74f6 133d 63ae 1c3e 5d93 8e3d c955 073e
00000240: c1d5 e0bc 6447 c53d 06cf 183d 29be 67bc
00000250: a767 84bc beb0 30bc e90d 033e a2e3 e4bb
00000260: ee3c 323c a59b 493c f219 eb3c d687 8dbc
00000270: 57ef 87bd 05f6 cebb 6a41 28bd d1f8 c33b
00000280: 8e3a 923d 88a9 9d3d ebd9 a7bb 74ce 263d
00000290: dc8e b73d 05ff 363d 3f92 81bb 14f4 e2bd
000002a0: cf54 f13b 1c2a 1c3d 0819 03bc b22a 3abd
000002b0: 8a0d 673c 9690 edbd 3605 01bd 0fb8 06bd
000002c0: d372 f23d b581 013e 5ae6 673d fd1d 173e
000002d0: 06aa ad3d 0feb 883c 5fca 163d 0a62 3d3e
000002e0: b2d6 1a3e f773 2d3e 8089 61bd 3efa b4bd
000002f0: e1df 82bc 35c4 f3bc 1c8e b7bc 4fb3 993d
00000300: ea32 25bd d101 893d da40 66bc f8db 21be
00000310: 5e27 8cbd 6d26 173d e1c3 ca3d b0fb 1dbc
00000320: 7fd0 72bc e9fd 083e c585 d93d 205f a0bd
00000330: e46e 6e3d 1027 97bd 3c11 20bd 9c09 7ebd
00000340: 530d 20bd cf6f 663d 570c d8bc e47d 8a3d
00000350: 77c7 6b3d 2fdf 08bd f556 2ebe d19b 44bc
00000360: c17c e53d 76f4 143e 905b 023c 4328 833d
00000370: b83a 2ebe 0450 b53d 5015 353e ea43 013c
00000380: 9e72 d63d 1eb3 943c 5a83 4bbd f51a 303e
00000390: 09d9 94bc a8b4 82bd d082 c33d f191 3d3e
000003a0: b6c0 68bd 279c d6bd a1ca 343e d1f0 0c3e
000003b0: 5878 453d 6af1 c4bd cf58 91bd d070 45bd
000003c0: caf1 c6bd 8219 493d 6d8f 853c 9bad f4bd
000003d0: e06f f8bd 1f8c 2d3c 1075 4bbd 6d7c 903d
000003e0: 4891 efbd 441d a73d fb03 433d ba38 023d
000003f0: 4eec 29bd 3dc3 713d 24bb 81bb 94ad 4e3e

fc2.bias f4 [84]
-0.11216112 0.08403585 -0.027727233 0.026523167 0.0078012273 -0.13729374 0.06144187 0.09366155
-0.06663814 -0.033432707 0.055772047 0.2008259 0.2179078 0.0972684 -0.115247615 0.11316297
-0.10317546 -0.049815487 0.0793749 -0.08524494 -0.06852119 0.071398325 -0.10949969 0.27706867
-0.13144322 -0.085427515 0.24526797 0.0319266 -0.030467074 -0.0031363876 0.09473739 0.1298915
0.15888773 -0.006050838 -0.11925307 -0.007207116 0.14109543 0.13877445 -0.11134369 0.06827486
0.12373224 -0.028243734 0.18638803 0.027186548 -0.055664983 0.074879095 0.021412775 0.062589474
0.12221672 -0.062421024 0.028555185 -0.06528597 0.13051039 0.043024212 0.10982109 0.03430567
-0.09284418 0.007105923 -0.14499061 0.014719618 -0.10379975 0.07430655 -0.034377966 0.03618374
-0.11533501 0.036249697 -0.03670612 -0.033174045 0.07919896 0.062844574 0.12206829 -0.10307253
-0.04961715 0.07553027 0.1948952 0.14887743 0.014496156 0.08380178 -0.062052924 -0.06601664
-0.04491911 0.21791208 0.15813695 -0.07410833
00000000: bbb4 e5bd fd1a ac3d 3924 e3bc 1d47 d93c
00000010: 70a1 ff3b bb96 0cbe 78aa 7b3d a0d1 bf3d
00000020: 9479 88bd bcf0 08bd 3b71 643d 4ea5 4d3e
00000030: 3923 5f3e a834 c73d f106 ecbd fdc1 e73d
00000040: a84d d3bd 530b 4cbd 4f8f a23d e694 aebd
00000050: d654 8cbd 4939 923d 6041 e0bd f2db 8d3e
00000060: 0d99 06be 9ff4 aebd 8727 7b3e 77c5 023d
00000070: 1696 f9bc da8b 4dbb ad05 c23d 4702 053e
00000080: 77b3 223e 1c46 c6bb f43a f4bd ac29 ecbb
00000090: 527b 103e e41a 0e3e 2908 e4bd b1d3 8b3d
000000a0: 5467 fd3d 675f e7bc 81dc 3e3e 53b6 de3c
000000b0: f700 64bd 365a 993d d869 af3c e92e 803d
000000c0: c24c fa3d 30ad 7fbd 90ec e93c a7b4 85bd
000000d0: 84a4 053e 283a 303d e1e9 e03d 1a84 0c3d
000000e0: 1725 bebd cdd8 e83b 6b78 14be 8d2a 713c
000000f0: f794 d4bd 082e 983d e9cf 0cbd 6735 143d
00000100: c334 ecbd 907a 143d 2859 16bd 82e1 07bd
00000110: 1033 a23d a8b4 803d f1fe f93d b117 d3bd
00000120: 5a3b 4bbd 9daf 9a3d 9b92 473e 5373 183e
00000130: 4981 6d3c 45a0 ab3d 352b 7ebd bb33 87bd
00000140: 1afd 37bd 5824 5f3e a7ee 213e 1cc6 97bd

fc3.weight f4 [50, 84]
-0.14818771 -0.028459905 0.032586854 -0.11046146 -0.1473898 -0.17166676 0.009561473 6.236957e-05
0.22681093 -0.12512834 -0.26407284 0.12132096 0.018222738 -0.17645405 0.06068554 0.079193845
-0.015944239 0.100013226 -0.013623294 0.08189051 0.11824175 0.1716925 0.0032613236 0.17075534
-0.10571656 0.026314894 0.0043932763 0.04423387 0.050176807 -0.0012306883 0.13620122 -0.040950283
0.20763347 -0.07477468 -0.04194432 0.005202269 -0.18695763 0.08630939 0.121520795 0.10786676
-0.091381125 -0.013328942 0.08653756 0.030770648 0.15655895 0.09646416 -0.10500602 -0.06650663
0.045932163 -0.19046189 -0.03613445 -0.091206804 0.030522062 0.037616387 0.17905709 0.17662552
0.034734454 -0.11177526 -0.048042964 -0.066432245 0.090131335 -0.001590351 -0.057679325 0.11436462
0.04749043 -0.14225328 0.06290772 -0.18011239 0.05413375 -0.11298223 0.06920292 -0.051826414
-0.047513187 0.0005750361 0.13750657 -0.07540819 0.022589395 -0.14146031 0.10104119 -0.13832991
0.09115765 0.20223185 -0.027933355 -0.14752422 0.15495129 0.016267696 -0.14782384 0.018826403
-0.20452927 0.019620584 0.007179061 0.106227085 0.025249965 -0.1812081 0.06529914 0.24889885
0.17310096 -0.069854915 -0.013371321 0.06081453 -0.08402233 0.018291213 0.005802316 0.052662402
-0.024313785 -0.07106549 -0.0019818728 0.3356004 -0.035255816 -0.17191857 0.2312945 -0.09464575
-0.012507384 -0.08602089 0.025961619 0.0034401442 0.033696815 0.027993143 2.750252e-05 -0.086197555
0.17411593 -0.012950821 -0.15024467 -0.18508764 -0.012320177 -0.06271119 0.07314066 0.044784106
0.09836938 0.07154431 -0.1073219 0.06295471 0.14836235 -0.10097483 0.16934909 -0.07151709
-0.023521543 -0.22963193 -0.13679549 -0.16221394 0.07455997 -0.008580518 -0.07227997 -0.0400738
-0.012913802 0.16029316 0.025813313 -0.025732758 -0.10985887 0.06473029 0.054027285 -0.06036648
0.13043283 -0.05677465 -0.07159025 0.11390823 0.10418419 0.1734299 0.044015445 0.08899753
-0.10290287 -0.06514476 0.024407068 -0.20427778 -0.08162837 -0.124496356 -0.017967492 -0.06942592
0.03668448 0.13855845 0.04017585 -0.2005027 0.046839435 0.081422724 0.16641086 0.014242469
-0.18744497 0.08224044 -0.0620773 -0.053665727 0.11747123 0.0826238 0.0588258 0.046750464
-0.06607907 0.052589193 -0.054934543 0.017858395 0.11448642 0.105290264 0.055314872 0.22446027
0.08218472 0.14193045 0.06226806 -0.04891784 -0.08677824 -0.12056722 0.21418451 0.21370347
-0.10043199 -0.2080578 0.04322675 -0.15642752 -0.0068600373 -0.03876395 -0.08867614 0.11387414
0.19150329 -0.030133499 0.020163834 0.025946435 -0.04901361 -0.12141555 0.18807252 -0.027381731
0.059215803 -0.089042105 0.042574048 0.10629378 0.05134683 0.024593554 0.15003459 0.043286033
-0.16299027 -0.057804022 0.010961492 0.028232737 -0.08566188 -0.15156089 0.106537774 0.12952846
-0.055276386 0.14505863 -0.13906968 -0.06839892 -0.11707657 0.09987786 0.004209594 -0.075079374
-0.0076710624 -0.04384904 0.11947264 0.016387545 0.05904346 0.16532919 0.09296326 0.0383123
0.025339365 0.11329753 0.24001008 0.0338884 -0.13000324 0.11146501 -0.08788963 -0.069467776
00000000: 85be 17be bf24 e9bc cb79 053d 9e39 e2bd
00000010: 5aed 16be 69c9 2fbe b9a7 1c3c 68cc 8238
00000020: 2041 683e a521 00be 8e34 87be 2077 f83d
00000030: da47 953c 5fb0 34be 6791 783d 6230 a23d
00000040: 7e9d 82bc bcd3 cc3d 3d34 5fbc 36b6 a73d
00000050: bb28 f23d 29d0 2f3e eebb 553b 7dda 2e3e
00000060: ec81 d8bd 5592 d73c 79f5 8f3b 932e 353d
00000070: 3286 4d3d 0c4f a1ba 5578 0b3e 7cbb 27bd
00000080: de9d 543e 7823 99bd cfcd 2bbd cc77 aa3b
00000090: d271 3fbe fac2 b03d e5df f83d 3fe9 dc3d
000000a0: 0726 bbbd a261 5abc 9b3a b13d ba12 fc3c
000000b0: fd50 203e 008f c53d 650d d7bd a134 88bd
000000c0: 5d23 3c3d 7108 43be b801 14bd a2ca babd
000000d0: 6709 fa3c a413 1a3d be5a 373e 52dd 343e
000000e0: b745 0e3d 6dea e4bd b3c8 44bd a10d 88bd
000000f0: c796 b83d 5373 d0ba 2841 6cbd ff37 ea3d
00000100: 5385 423d d8aa 11be c3d5 803d 626f 38be
00000110: 5abb 5d3d 3a63 e7bd 43ba 8d3d ef47 54bd
00000120: 309d 42bd 05be 163a 86ce 0c3e 9c6f 9abd
00000130: 650d b93c f9da 10be afee ce3d 5ba6 0dbe
00000140: ddb0 ba3d de15 4f3e 7ed4 e4bc 9710 17be
00000150: 8dab 1e3e d543 853c 225f 17be d439 9a3c
00000160: 1f70 51be 59bb a03c 543e eb3b 968d d93d
00000170: 04d9 ce3c 9e8e 39be 8ebb 853d 57df 7e3e
00000180: 6141 313e 1810 8fbd 6313 5bbc a818 793d
00000190: e613 acbd 74d7 953c 5b21 be3b 88b4 573d
000001a0: b42d c7bc c98a 91bd 4fe2 01bb d1d3 ab3e
000001b0: 6768 10bd 6c0b 30be 77d8 6c3e a2d5 c1bd
000001c0: c5eb 4cbc b82b b0bd 76ad d43c 0b74 613b
000001d0: ac05 0a3d e051 e53c 36b5 e637 5888 b0bd
000001e0: 724b 323e ae2f 54bc bdd9 19be 9d87 3dbe
000001f0: 91da 49bc b96e 80bd c5ca 953d 8a6f 373d
00000200: e375 c93d d385 923d 96cb dbbd 66ee 803d
00000210: 4dec 173e e4cb cebd d969 2d3e 8d77 92bd
00000220: 40b0 c0bc a224 6bbe 1e14 0cbe 691b 26be
00000230: e6b2 983d 4d95 0cbc 8507 94bd 6d24 24bd
00000240: 6994 53bc e423 243e 7176 d33c 81cd d2bc
00000250: b0fd e0bd 5091 843d b74b 5d3d d842 77bd
00000260: 2f90 053e 898c 68bd e99d 92bd b848 e93d
00000270: 855e d53d 9c97 313e 8a49 343d 5644 b63d
00000280: bdbe d2bd 9e6a 85bd 55f1 c73c 322e 51be
00000290: c62c a7bd f2f7 febd 9030 93bc 2d2f 8ebd
000002a0: 7742 163d 44e2 0d3e 6f8f 243d 9450 4dbe
000002b0: b5da 3f3d f5c0 a63d 9c67 2a3e 3f59 693c
000002c0: 93f1 3fbe ad6d a83d c444 7ebd 98d0 5bbd
000002d0: c294 f03d ab36 a93d 52f3 703d 6a7d 3f3d
000002e0: 7754 87bd c467 573d 0b03 61bd c54b 923c
000002f0: db77 ea3d 6ca2 d73d d991 623d ead8 653e
00000300: 7650 a83d 3756 113e cb0c 7f3d 135e 48bd
00000310: cab8 b1bd f2eb f6bd 2f53 5b3e 15d5 5a3e
00000320: 4aaf cdbd 1b0d 55be 880e 313d 892e 20be
00000330: 2aca e0bb f3c6 1ebd d69b b5bd d836 e93d
00000340: 7019 443e 87da f6bc a02e a53c 9e8d d43c
00000350: 7fc2 48bd b7a8 f8bd 1596 403e a74f e0bc
00000360: 458c 723d b55b b6bd 2062 2e3d 8eb0 d93d
00000370: 0e51 523d 6c78 c93c aba2 193e b24c 313d
00000380: ece6 26be e9c3 6cbd d497 333c 5748 e73c
00000390: 7f6f afbd c732 1bbe 7a30 da3d 1ca3 043e
000003a0: 7e69 62bd 408a 143e 4868 0ebe bc14 8cbd
000003b0: d7c5 efbd c38c cc3d a2f0 893b 37c3 99bd
000003c0: 895d fbbb 0d9b 33bd 12ae f43d 2c3f 863c
000003d0: 8ed7 713d 0e4c 293e 8663 be3d 5ced 1c3d
000003e0: 8094 cf3c 8908 e83d 34c5 753e 90ce 0a3d
000003f0: 921f 05be c447 e43d 7aff b3bd 1f45 8ebd

fc3.bias f4 [50]
0.058299597 0.0009130076 0.12637828 -0.0024255246 0.15590374 -0.17453861 -0.08132978 -0.047467254
-0.017948437 0.13353628 0.04948909 -0.038095895 0.058595907 -0.07975335 -0.020912394 0.13945472
0.17549214 -0.10322306 0.13807465 -0.107548214 0.06231852 -0.14335036 -0.11016128 0.023299677
0.13423552 0.10933367 -0.15421902 0.1599075 0.04720136 -0.09390304 0.15691459 -0.09874116
-0.019037927 0.027747381 -0.0524391 0.064250484 0.119057916 -0.022225257 -0.069438875 -0.054792527
-0.11311431 -0.12275852 -0.16606452 0.13047272 -0.08983042 -0.12542717 0.1638289 0.109501466
-0.0033426739 -0.015964828
00000000: 8fcb 6e3d e756 6f3a 4f69 013e 8df5 1ebb
00000010: 3ba5 1f3e 40ba 32be 3a90 a6bd 066d 42bd
00000020: 9a08 93bc bcbd 083e 12b5 4a3d 710a 1cbd
00000030: 4302 703d b955 a3bd 7850 abbc 38cd 0e3e
00000040: 36b4 333e 9d66 d3bd 7163 0d3e 3d42 dcbd
00000050: b441 7f3d 70ca 12be 3d9c e1bd f7de be3c
00000060: 0975 093e 55ea df3d 97eb 1dbe cbbe 233e
00000070: 3756 413d 3d50 c0bd 38ae 203e ce38 cabd
00000080: 6df5 9bbc 7a4e e33c 62ca 56bd c295 833d
00000090: a3d4 f33d be11 b6bc f835 8ebd 216e 60bd
000000a0: 7aa8 e7bd d268 fbbd d10c 2abe a49a 053e
000000b0: 03f9 b7bd fb6f 00be c3c2 273e 4e42 e03d
000000c0: c310 5bbb acc8 82bc

fc4.weight f4 [11, 50]
-0.10835717 0.14045244 -0.18809499 0.11390559 0.15231924 -0.04677991 0.12585738 0.15648122
0.020442603 0.103041895 -0.16918527 0.036863506 0.080442995 0.14470427 0.15876566 0.052180078
0.0023386544 -0.052698746 0.03088108 -0.20784259 0.07156526 -0.12905183 0.01538168 0.03758474
0.086381 -0.20472021 -0.18627249 0.018017031 -0.27695343 0.009750343 -0.0911635 0.24306202
-0.1592005 -0.14882062 -0.08992889 -0.015860124 0.05284431 0.09823713 0.14179038 -0.014851506
-0.12853612 0.22625045 -0.14943928 0.080646075 0.05748086 -0.09971823 -0.04142414 0.20862837
-0.056984007 0.090351194 -0.17944215 -0.04356456 0.029582474 0.042366184 0.18223739 0.009191978
0.104543105 0.09079485 -0.07985288 0.14552225 -0.19795676 0.15208732 0.17225224 0.1511006
0.17646942 -0.0033766201 0.061394073 -0.16211997 -0.15408543 0.008837907 -0.012350941 0.12975784
-0.031908378 0.213784 0.14522052 0.09285361 -0.11453089 -0.18495907 -0.08670347 -0.02469195
-0.17688315 0.010570707 -0.023985822 -0.0771779 -0.07830136 -0.2503219 0.22677314 -0.1680027
0.053890865 0.02874382 -0.180253 -0.093959026 0.09598953 0.100733235 0.04981938 0.15507023
0.16543724 -0.09696968 0.2166994 -0.15590602 -0.17763227 -0.061134733 0.027577294 0.1851516
-0.065656036 0.09787542 0.022517858 0.08616535 0.3200159 0.1302894 -0.1877459 0.1964575
0.14075011 0.06429037 -0.1437708 0.14709198 0.07100238 0.07792795 -0.16422652 0.23093818
-0.32354006 0.0770379 -0.01325383 -0.00893485 0.15024866 0.14645685 0.16215667 -0.21340396
-0.13092484 -0.034267664 -0.053178757 -0.19431491 0.21348178 0.005261845 0.1297978 0.038548876
0.085250996 0.08350597 0.06106274 -0.2297176 0.18528125 -0.12614009 0.08602407 0.14896852
0.07419406 0.18816544 -0.008024491 -0.23086712 0.18043669 0.00671037 0.27867338 -0.17492883
0.096561894 -0.052275687 0.0071963705 0.19893205 -0.08540711 -0.20344245 0.14112134 0.11267868
0.067913964 0.007746626 -0.12290944 0.044546057 -0.1335412 -0.10973675 -0.020461429 0.34802055
0.20871538 -0.16699855 0.11953985 -0.02964452 0.21988568 -0.1445583 -0.09154996 0.064285204
-0.052250866 0.11473616 0.17531641 -0.05626323 -0.019934315 -0.25609776 0.10369465 0.11439274
0.25552487 0.17749283 -0.15180804 -0.008449255 0.03814473 -0.14766438 -0.037631914 0.079912566
-0.027493522 -0.14717238 -0.0602168 -0.054109484 0.16863988 -0.20856278 -0.06561112 -0.12712891
-0.022420906 0.0885117 0.097527064 -0.0057076146 0.24637154 0.04000765 -0.19689655 0.028230306
-0.12131773 -0.19540189 -0.08332007 -0.1552837 0.07192049 -0.28128344 -0.19337243 -0.008886615
0.029490048 0.072797 0.0056369333 0.27008083 -0.18925968 0.19840398 -0.27550238 0.16203035
0.09733021 -0.18542573 0.2942877 -0.22183938 0.13352956 -0.18322517 -0.19712994 0.09580955
-0.006400516 -0.2089809 -0.23811218 -0.2765984 0.22388649 -0.14704409 -0.19796035 0.17315285
-0.14441 -0.12850112 0.14787862 -0.12400624 -0.29852137 -0.09397802 -0.18083413 -0.13311352
0.07410603 0.24090742 -0.010475262 -0.16955487 0.04798588 -0.15199721 -0.1338873 0.15107252
00000000: 5dea ddbd c4d2 0f3e f99b 40be 5547 e93d
00000010: 93f9 1b3e 4a9c 3fbd c2e0 003e 9d3c 203e
00000020: 3f77 a73c a107 d33d e73e 2dbe 30fe 163d
00000030: 4cbf a43d 5b2d 143e 7793 223e c7ba 553d
00000040: 1c44 193b a4da 57bd 52fa fc3c b0d4 54be
00000050: cf90 923d 2a26 04be 7103 7c3c 75f2 193d
00000060: 86e8 b03d 2da2 51be 37be 3ebe 7498 933c
00000070: d7cc 8dbe e7bf 1f3c eeb3 babd 40e5 783e
00000080: 7505 23be 6f64 18be a32c b8bd 17ed 81bc
00000090: 4673 583d 8c30 c93d 7f31 113e bb53 73bc
000000a0: f99e 03be 33ae 673e 9c06 19be c529 a53d
000000b0: 0d71 6b3d 1239 ccbd 5cac 29bd ada2 553e
000000c0: 1068 69bd 0c0a b93d afbf 37be c170 32bd
000000d0: f256 f23c 2a88 2d3d 709c 3a3e f399 163c
000000e0: b21a d63d a6f2 b93d e889 a3bd c903 153e
000000f0: 2db5 4abe c7bc 1b3e e462 303e 1eba 1a3e
00000100: 66b4 343e 494a 5dbb 5a78 7b3d c702 26be
00000110: 92c8 1dbe decc 103c 9a5b 4abc 3ddf 043e
00000120: 5cb2 02bd 31ea 5a3e b0b4 143e 092a be3d
00000130: 2c8f eabd e965 3dbe 9791 b1bd c646 cabc
00000140: db20 35be c230 2d3c ea7d c4bc 720f 9ebd
00000150: 775c a0bd 312a 80be 3837 683e e608 2cbe
00000160: abbc 5c3d 2978 eb3c 3e94 38be 976d c0bd
00000170: 2996 c43d 3a4d ce3d 680f 4c3d bbca 1e3e
00000180: 6168 293e 0a98 c6bd 73e6 5d3e d4a5 1fbe
00000190: 3ce5 35be 6a68 7abd c7e9 e13c 6298 3d3e
000001a0: ac76 86bd e872 c83d 5f77 b83c 7677 b03d
000001b0: 20d9 a33e 966a 053e 7640 40be 282c 493e
000001c0: cc20 103e abaa 833d a738 13be 489f 163e
000001d0: b269 913d b098 9f3d ff2a 28be 0f7b 6c3e
000001e0: 0ba7 a5be 0cc6 9d3d 9826 59bc 7a63 12bc
000001f0: c9da 193e c9f8 153e 660c 263e 9186 5abe
00000200: 2911 06be 405c 0cbd f8d1 59bd 7dfa 46be
00000210: f89a 5a3e 8e6b ac3b b7e9 043e 6de5 1d3d
00000220: 1398 ae3d 2e05 ab3d ec1c 7a3d 173b 6bbe
00000230: 5eba 3d3e de2a 01be 632d b03d 348b 183e
00000240: 0ef3 973d 71ae 403e 2879 03bc 6e68 6cbe
00000250: 65c4 383e aae2 db3b 47ae 8e3e 8b20 33be
00000260: 3ec2 c53d 081f 56bd 88cf eb3b d8b4 4b3e
00000270: ece9 aebd 3853 50be 1d82 103e 14c4 e63d
00000280: 7a16 8b3d 69d7 fd3b f2b7 fbbd ed75 363d
00000290: 06bf 08be a9bd e0bd ba9e a7bc c02f b23e
000002a0: 7cb9 553e ab01 2bbe 4fd1 f43d 10d9 f2bc
000002b0: b629 613e 1707 14be 8c7e bbbd f6a7 833d
000002c0: 0105 56bd cbfa ea3d 2586 333e 4674 66bd
000002d0: 4a4d a3bc 3f1f 83be dc5d d43d be46 ea3d
000002e0: 28d4 823e aec0 353e 9173 1bbe be6e 0abc
000002f0: a63d 1c3d 5535 17be ec23 1abd 33a9 a33d
00000300: 183a e1bc 5bb4 16be e4a5 76bd e8a1 5dbd
00000310: efaf 2c3e 7b91 55be 1f5f 86bd 152e 02be
00000320: 0cac b7bc 9f45 b53d 45bc c73d f106 bbbb
00000330: d248 7c3e 10df 233d 409f 49be 3e43 e73c
00000340: 6e75 f8bd 6f17 48be b6a3 aabd b102 1fbe
00000350: 0d4b 933d 6204 90be 6c03 46be 2a99 11bc
00000360: 1d95 f13c 9816 953d 06b6 b83b 0948 8a3e
00000370: 4acd 41be 6a2a 4b3e a60e 8dbe 49eb 253e
00000380: 1055 c73d 3ee0 3dbe e1ac 963e dd29 63be
00000390: f9bb 083e 619f 3bbe 6edc 49be cc37 c43d
000003a0: 6bbb d1bb 17ff 55be aed3 73be 4e9e 8dbe
000003b0: 8042 653e ba92 16be 1eb6 4abe fb4e 313e
000003c0: 37e0 13be cc95 03be 7e6d 173e fcf6 fdbd
000003d0: cbd7 98be 8c77 c0bd 952c 39be e94e 08be
000003e0: e7c4 973d 6fb0 763e 6fa0 2bbc cb9f 2dbe
000003f0: d88c 443d 28a5 1bbe c119 09be c1b2 1a3e

fc4.bias f4 [11]
0.053746257 -0.018076034 -0.046517555 0.07099841 -0.33714902 0.008593043 -0.19368377 -0.051536255
0.0099713905 -0.051728446 0.26950642
00000000: 0925 5c3d 3114 94bc 3189 3ebd 9d67 913d
00000010: cc9e acbe d6c9 0c3c 0a55 46be ae17 53bd
00000020: 0b5f 233c 35e1 53bd bffc 893e
